Neural Network Tools for STM32AI v1.6.0 (STM.ai v7.1.0-RC3)
Created date          : 2022-09-30 17:10:37
Parameters            : generate --name network -m C:/Users/Luigi Capogrosso/Desktop/Models-v3/network.onnx --type onnx --compression 1 --verbosity 1 --workspace C:\Users\LUIGIC~1\AppData\Local\Temp\mxAI_workspace5217846224008723346545929024202 --output C:\Users\Luigi Capogrosso\.stm32cubemx\network_output

Exec/report summary (generate)
------------------------------------------------------------------------------------------------------------------------
model file            : C:\Users\Luigi Capogrosso\Desktop\Models-v3\network.onnx
type                  : onnx
c_name                : network
compression           : None
workspace dir         : C:\Users\LUIGIC~1\AppData\Local\Temp\mxAI_workspace5217846224008723346545929024202
output dir            : C:\Users\Luigi Capogrosso\.stm32cubemx\network_output
model_name            : network
model_hash            : ff0d3e612c52836fce63bfdf5dec2a24
input 1/1             : 'input_1'
                        1250 items, 4.88 KiB, ai_float, float, (1,1250,1,1), domain:user/
output 1/1            : 'node_12'
                        2 items, 8 B, ai_float, float, (1,1,1,2), domain:user/
params #              : 6,940 items (27.11 KiB)
macc                  : 10,023
weights (ro)          : 27,760 B (27.11 KiB) (1 segment)
activations (rw)      : 840 B (840 B) (1 segment)
ram (total)           : 5,848 B (5.71 KiB) = 840 + 5,000 + 8

Model name - network ['input_1'] ['node_12']
---------------------------------------------------------------------------------------------------------------------------------------------
id   layer (type)                   oshape         param/size     macc    connected to    |   c_size             c_macc          c_type     
---------------------------------------------------------------------------------------------------------------------------------------------
3    fcn_1_weight (Placeholder)     (1,170,1,40)   6,800/27,200                           |   -27,200(-100.0%)                  
     fcn_1_bias (Placeholder)       (1,1,1,40)     40/160                                 |   -160(-100.0%)                     
---------------------------------------------------------------------------------------------------------------------------------------------
5    fcn_4_weight (Placeholder)     (1,40,1,2)     80/320                                 |   -320(-100.0%)                     
     fcn_4_bias (Placeholder)       (1,1,1,2)      2/8                                    |   -8(-100.0%)                       
---------------------------------------------------------------------------------------------------------------------------------------------
0    input_1 (Input)                (1,1250,1,1)                                          |                                     
     input (Conv2D)                 (1,170,1,1)    18/72          2,891   input_1         |                      +170(+5.9%)     conv2d()[0]
---------------------------------------------------------------------------------------------------------------------------------------------
1    onnxFlatten_8 (Nonlinearity)   (1,170,1,1)                   170     input           |                      -170(-100.0%)  
---------------------------------------------------------------------------------------------------------------------------------------------
2    input_4 (Reshape)              (1,1,1,170)                           onnxFlatten_8   |                                     
---------------------------------------------------------------------------------------------------------------------------------------------
3    input_8 (Gemm)                 (1,1,1,40)                    6,840   input_4         |   +27,360(+100.0%)                   gemm()[1]  
                                                                          fcn_1_weight    |  
                                                                          fcn_1_bias      |  
---------------------------------------------------------------------------------------------------------------------------------------------
4    input_12 (Nonlinearity)        (1,1,1,40)                    40      input_8         |                                      nl()[2]    
---------------------------------------------------------------------------------------------------------------------------------------------
5    node_12 (Gemm)                 (1,1,1,2)                     82      input_12        |   +328(+100.0%)                      gemm()/o[3]
                                                                          fcn_4_weight    |  
                                                                          fcn_4_bias      |  
---------------------------------------------------------------------------------------------------------------------------------------------
model/c-model: macc=10,023/10,023  weights=27,760/27,760  activations=--/840 io=--/5,008



Generated C-graph summary
------------------------------------------------------------------------------------------------------------------------
model name            : network
c-name                : network
c-node #              : 4
c-array #             : 11
activations size      : 840 (1 segments)
weights size          : 27760 (1 segments)
macc                  : 10023
inputs                : ['input_1_output']
outputs               : ['node_12_output']

C-Arrays (11)
----------------------------------------------------------------------------------------------
c_id   name (*_array)    item/size    domain/mem-pool           c-type        fmt     comment
----------------------------------------------------------------------------------------------
0      input_1_output    1250/5000    user/                     float         float   /input 
1      input_output      170/680      activations/**default**   float         float          
2      input_8_output    40/160       activations/**default**   float         float          
3      input_12_output   40/160       activations/**default**   float         float          
4      node_12_output    2/8          user/                     float         float   /output
5      input_weights     17/68        weights/                  const float   float          
6      input_bias        1/4          weights/                  const float   float          
7      fcn_4_bias        2/8          weights/                  const float   float          
8      fcn_4_weight      80/320       weights/                  const float   float          
9      fcn_1_bias        40/160       weights/                  const float   float          
10     fcn_1_weight      6800/27200   weights/                  const float   float          
----------------------------------------------------------------------------------------------

C-Layers (4)
------------------------------------------------------------------------------------------------
c_id   name (*_layer)   id   layer_type   macc   rom     tensors              shape (array id) 
------------------------------------------------------------------------------------------------
0      input            1    conv2d       3061   72      I: input_1_output    (1,1250,1,1) (0) 
                                                         W: input_weights     (1,1,17,1) (5)   
                                                         W: input_bias        (1,1,1,1) (6)    
                                                         O: input_output      (1,170,1,1) (1)  
------------------------------------------------------------------------------------------------
1      input_8          3    gemm         6840   27360   I: input_output0     (1,1,1,170) (1)  
                                                         I: fcn_1_weight      (1,40,1,170) (10)
                                                         I: fcn_1_bias        (1,1,1,40) (9)   
                                                         O: input_8_output    (1,1,1,40) (2)   
------------------------------------------------------------------------------------------------
2      input_12         4    nl           40     0       I: input_8_output    (1,1,1,40) (2)   
                                                         O: input_12_output   (1,1,1,40) (3)   
------------------------------------------------------------------------------------------------
3      node_12          5    gemm         82     328     I: input_12_output   (1,1,1,40) (3)   
                                                         I: fcn_4_weight      (1,2,1,40) (8)   
                                                         I: fcn_4_bias        (1,1,1,2) (7)    
                                                         O: node_12_output    (1,1,1,2) (4)    
------------------------------------------------------------------------------------------------



Complexity report per layer - macc=10,023 weights=27,760 act=840 ram_io=5,008
-------------------------------------------------------------------------
id   name       c_macc                    c_rom                     c_id
-------------------------------------------------------------------------
0    input      |||||||           30.5%   |                  0.3%   [0] 
3    input_8    ||||||||||||||||  68.2%   ||||||||||||||||  98.6%   [1] 
4    input_12   |                  0.4%   |                  0.0%   [2] 
5    node_12    |                  0.8%   |                  1.2%   [3] 

Generated files (5)
--------------------------------------------------------------------------------
C:\Users\Luigi Capogrosso\.stm32cubemx\network_output\network_config.h
C:\Users\Luigi Capogrosso\.stm32cubemx\network_output\network.h
C:\Users\Luigi Capogrosso\.stm32cubemx\network_output\network.c
C:\Users\Luigi Capogrosso\.stm32cubemx\network_output\network_data.h
C:\Users\Luigi Capogrosso\.stm32cubemx\network_output\network_data.c
